src/models/darts_logs/Air_RNN/_model.pth.tar (torch, 19859 bytes, 5 tensors)

weight_ih_l0 f4 [80, 1]
-0.057503033 -0.12494849 -0.16604602 -0.10564631 0.077362314 0.14596298 0.005957138 0.19394079
-0.12667458 0.16140972 0.20219135 -0.07023149 -0.04159731 -0.083917 0.008217407 0.104839645
0.11030533 -0.003619086 -0.18294641 0.045907907 -0.10971306 -0.21561839 -0.21141349 -0.041986622
-0.09014302 -0.1906737 -0.016832335 -0.08891703 -0.011550661 -0.04211212 -0.17749535 0.048021756
-0.115654044 -0.14134417 -0.12356112 0.009711343 -0.15681271 0.12643093 0.14847974 -0.031143973
-0.13558346 -0.2020502 0.01923199 0.11822158 -0.19208063 -0.08118684 0.12655862 0.14049153
-0.018883303 0.082896315 -0.020327125 0.030238735 0.20149092 0.11065567 -0.07387523 0.021170175
-0.20055297 -0.007582781 0.09342755 -0.039529685 0.1421882 -0.18982531 0.076258175 0.16370259
-0.1350896 0.17887154 0.03859254 -0.0053415974 0.02886675 -0.14023358 0.20874885 0.1261485
0.019380383 -0.19262505 -0.1789077 0.017604187 0.13260101 -0.12625048 -0.05939766 0.17471606
00000000: 4d88 6bbd fee4 ffbd f807 2abe 185d d8bd
00000010: 2270 9e3d 5277 153e 1834 c33b 6a98 463e
00000020: fbb6 01be 9748 253e 400b 4f3e 87d5 8fbd
00000030: f161 2abd addc abbd 4ea2 063c 2bb6 d63d
00000040: c3e7 e13d 302e 6dbb 4e56 3bbe ee09 3c3d
00000050: 3eb1 e0bd 11cb 5cbe c77c 58be 2afa 2bbd
00000060: e79c b8bd f73f 43be f7e3 89bc 221a b6bd
00000070: fc3e 3dbc c27d 2cbd 57c1 35be 76b2 443d
00000080: 07dc ecbd 87bc 10be 9d0d fdbd 531c 1f3c
00000090: 8393 20be 1c77 013e 130b 183e a521 ffbc
000000a0: 64d6 0abe 3fe6 4ebe 688c 9d3c 281e f23d
000000b0: c9b0 44be 4945 a6bd 9598 013e 03dd 0f3e
000000c0: 28b1 9abc 8bc5 a93d 1285 a6bc 39b7 f73c
000000d0: a353 4e3e 719f e23d e64b 97bd 136d ad3c
000000e0: c25d 4dbe fa78 f8bb f156 bf3d e1e9 21bd
000000f0: c999 113e 9161 42be 3f2d 9c3d a7a1 273e
00000100: ee54 0abe 1a2a 373e 3613 1e3d 9108 afbb
00000110: f679 ec3c 6499 0fbe 42c2 553e 132d 013e
00000120: 9cc3 9e3c 803f 45be 9533 37be a836 903c
00000130: 8fc8 073e ce47 01be f64a 73bd c4e8 323e

weight_hh_l0 f4 [80, 20]
-0.050717637 -0.06197535 -0.07405732 0.15981692 0.0055622556 -0.0053375987 -0.12259924 -0.12350509
-0.011923659 0.18414444 0.1641776 -0.14459439 -0.08608891 0.21385758 -0.15450205 -0.06841573
-0.07668438 0.08796133 0.2039882 -0.008483408 -0.044266537 -0.077073686 -0.22014575 -0.12814394
0.0061942963 0.1788343 -0.15813506 0.21658139 -0.067114815 -0.1901212 -0.04825148 -0.080131106
0.066466995 -0.10915033 0.06825441 0.17910483 -0.18344513 0.09330914 0.11015398 0.033507828
0.17006676 -0.18468465 -0.06371002 -0.023734668 -0.2034113 -0.13053313 0.14405565 -0.041582678
-0.07558415 -0.15390773 0.17520164 0.10656576 -0.15295097 -0.009212263 0.12412524 0.07903919
-0.17971587 0.12391567 0.004461416 0.12576067 -0.17822465 0.13897733 0.11632602 -0.12972704
-0.060930166 -0.19386074 0.12536885 0.19731568 -0.14900033 0.08859553 0.19714229 -0.19267268
-0.09370002 0.01775802 0.20030147 -0.18516228 0.18483187 0.19011013 -0.1535535 0.068886876
0.20658983 -0.074540354 0.2229375 -0.116866305 -0.018167028 0.21283452 0.059462596 -0.1330778
0.21619955 0.13340037 -0.014630389 0.14035968 -0.214984 0.027985608 0.16535929 -0.17103446
0.21719274 -0.1983152 -0.16562063 -0.1952344 0.13120116 -0.15452082 -0.13078871 0.059755623
0.2215602 0.0881866 -0.014916302 -0.21993904 -0.16992195 -0.01167861 0.14758503 0.053938884
-0.032656193 -0.011581075 0.19292064 -0.042071898 0.08081909 0.14914532 0.18245463 -0.013359058
0.16349928 -0.20506403 -0.036676027 0.111409046 0.020269148 0.18015921 0.14714538 0.16926855
-0.16987613 -0.14673986 -0.120990925 -0.16146149 -0.13012607 -0.19008924 0.17456667 0.050325982
-0.14156845 -0.07436514 0.056859102 0.113377355 -0.17683245 -0.0046906844 -0.07311074 0.16735324
-0.037276212 0.08479652 -0.18588999 0.062596545 -0.100266494 0.1279016 0.018755807 0.03275938
-0.015538213 0.078683816 0.121552594 -0.19664313 -0.057349518 -0.025497245 0.09116213 -0.15541227
0.15576819 -0.050370656 0.040492393 0.045516226 -0.21115449 -0.030062938 0.0847962 -0.057253134
0.10411503 -0.01983908 0.047301672 -0.18533704 0.039792247 0.11427516 0.0132766105 0.15357614
-0.16817984 0.17616569 -0.1076557 -0.029903801 0.017975798 0.10019527 -0.068537444 0.19851352
0.060853746 -0.2109019 -0.20411986 0.17763504 -0.031022955 -0.07289149 -0.0784437 -0.04308533
-0.006577636 -0.21361026 -0.16522577 0.02322642 -0.06065465 0.033181716 0.07548043 0.0027736109
-0.18943332 0.14758547 -0.09618135 -0.14716056 0.08521845 0.08493113 -0.099454306 0.09965828
-0.11958604 0.13099504 -0.051557515 0.040718917 0.036777798 0.00315082 -0.08990472 0.025041692
0.13620329 -0.15527782 -0.08476344 -0.17842446 -0.09617775 0.014508518 -0.101908185 -0.20333676
0.09977589 0.115437254 -0.023909133 -0.011124511 0.20277353 0.22036436 0.043068163 0.07435997
0.105932675 -0.17520998 -0.01079579 0.06761102 0.19865382 -0.16904826 0.12525876 0.2033626
-0.2161393 -0.21755841 0.041852597 -0.058111027 0.22087082 -0.16491832 -0.20178397 0.016091565
-0.04358713 0.07702013 0.06354051 -0.19785674 -0.086162426 0.0798091 0.070265636 -0.14530085
00000000: 4cbd 4fbd ddd9 7dbd 5dab 97bd 0ca7 233e
00000010: 9543 b63b 06e7 aebb 4f15 fbbd 3df0 fcbd
00000020: 735b 43bc 5c90 3c3e 2c1e 283e 8d10 14be
00000030: 624f b0bd 7bfd 5a3e c935 1ebe 8c1d 8cbd
00000040: b30c 9dbd 1225 b43d 48e2 503e fefd 0abc
00000050: d450 35bd cfd8 9dbd e36d 61be 2a38 03be
00000060: 86f9 ca3b 5720 373e 28ee 21be 83c7 5d3e
00000070: 7e73 89bd 22af 42be 58a3 45bd c71b a4bd
00000080: d91f 883d 358a dfbd f8c8 8b3d 4267 373e
00000090: 0ad9 3bbe dd18 bf3d 6998 e13d 813f 093d
000000a0: fb25 2e3e f91d 3dbe 667a 82bd 356f c2bc
000000b0: 0d4b 50be 7aaa 05be 5383 133e 9952 2abd
000000c0: ddcb 9abd fd99 1dbe 0f68 333e 263f da3d
000000d0: 2e9f 1cbe 08ef 16bc 6035 fe3d 4ddf a13d
000000e0: 7007 38be 80c7 fd3d 1231 923b 68c7 003e
000000f0: 8680 36be 1350 0e3e 563c ee3d 2ad7 04be
00000100: e991 79bd 6e83 46be b160 003e 1f0d 4a3e
00000110: 8b93 18be 9371 b53d abdf 493e fd4b 45be
00000120: cce5 bfbd 4479 913c d41b 4d3e 2e9b 3dbe
00000130: 9144 3d3e 3bac 423e 213d 1dbe 9014 8d3d
00000140: 498c 533e 9da8 98bd ba49 643e 9a57 efbd
00000150: 05d3 94bc 4bf1 593e 0d8f 733d 8c45 08be
00000160: 6a63 5d3e 1b9a 083e 4db4 6fbc 73ba 0f3e
00000170: c424 5cbe 1342 e53c f253 293e a823 2fbe
00000180: c667 5e3e 2413 4bbe 7498 29be 87eb 47be
00000190: 9959 063e b53a 1ebe 7aed 05be 50c2 743d
000001a0: ade0 623e 2d9b b43d 8163 74bc b337 61be
000001b0: 0500 2ebe a457 3fbc 8820 173e 05ef 5c3d
000001c0: 80c2 05bd 8dbe 3dbc fd8c 453e 9553 2cbd
000001d0: 7b84 a53d 8db9 183e 63d5 3a3e f3df 5abc
000001e0: 5b6c 273e 4efc 51be 9a39 16bd 6d2a e43d
000001f0: 7c0b a63c a87b 383e 47ad 163e bc54 2d3e
00000200: 02f4 2dbe f942 16be 17ca f7bd 2956 25be
00000210: c53f 05be c1a6 42be 9bc1 323e 9e22 4e3d
00000220: 52f7 10be c04c 98bd 17e5 683d 6332 e83d
00000230: 9113 35be 50b4 99bb 15bb 95bd a65e 2b3e
00000240: f1ae 18bd cca9 ad3d f259 3ebe 9e32 803d
00000250: 8558 cdbd a3f8 023e c7a5 993c b32e 063d
00000260: fd93 7ebc fb24 a13d 91f0 f83d d15c 49be
00000270: 54e7 6abd 99df d0bc 36b3 ba3d 6524 1fbe
00000280: b281 1f3e 7651 4ebd 5adb 253d 396f 3a3d
00000290: e238 58be 8d46 f6bc a1a9 ad3d 4382 6abd
000002a0: 433a d53d 9185 a2bc 66bf 413d fec8 3dbe
000002b0: 32fd 223d 1809 ea3d 2486 593c 1043 1d3e
000002c0: 5637 2cbe c764 343e 977a dcbd d1f8 f4bc
000002d0: fb41 933c 2d33 cd3d 5c5d 8cbd 2147 4b3e
000002e0: c741 793d abf6 57be cc04 51be f6e5 353e
000002f0: da23 febc 2248 95bd 17a7 a0bd 3e7a 30bd
00000300: 3689 d7bb a6bc 5abe f230 29be 5545 be3c
00000310: 0371 78bd 8de9 073d 7c95 9a3d 78c5 353b
00000320: cffa 41be a520 173e bafa c4bd 42b1 16be
00000330: 0387 ae3d 5ff0 ad3d b3ae cbbd a419 cc3d
00000340: 87e9 f4bd 9023 063e f92d 53bd e1c8 263d
00000350: 51a4 163d fd7d 4e3b f71f b8bd 3c24 cd3c
00000360: e078 0b3e 2601 1fbe 7498 adbd e7b4 36be
00000370: d7f8 c4bd 23b5 6d3c 3db5 d0bd 8337 50be
00000380: 4d57 cc3d 5e6a ec3d 16dd c3bc 9543 36bc
00000390: dda3 4f3e 32a7 613e 3e68 303d 0a4a 983d
000003a0: 3bf3 d83d 3f6a 33be d3e0 30bc a577 8a3d
000003b0: e86b 4b3e fd1a 2dbe d543 003e 493e 503e
000003c0: 9f53 5dbe a2c7 5ebe a16d 2b3d d405 6ebd
000003d0: f62b 623e 59e0 28be 75a0 4ebe 75d2 833c
000003e0: 6b88 32bd bbbc 9d3d 8721 823d f59a 4abe
000003f0: ed75 b0bd f472 a33d 6ee7 8f3d bfc9 14be

bias_ih_l0 f4 [80]
0.11973558 -0.0259758 0.13230973 -0.11739119 -0.06130319 -0.18380055 -0.03196327 0.15198338
-0.116433226 0.15287413 -0.018934561 -0.01931569 0.03309258 0.0054585906 -0.042185184 -0.18749495
0.081461236 -0.14483246 -0.097939685 0.10892268 0.18627578 -0.04063503 -0.13156997 0.1843638
0.009799255 -0.17820269 0.043548558 0.14382365 0.110484354 0.05029578 0.12588628 -0.10368033
-0.18915422 0.0815126 0.12793705 -0.18670821 -0.15096515 -0.11362432 -0.04258252 0.1492371
0.03926262 0.21491718 0.07203506 0.15671429 -0.13689129 -0.09410373 0.12177879 -0.046649985
0.15515025 -0.034268085 0.17743139 -0.026361432 -0.10387848 -0.09074081 0.039283626 -0.048672456
0.06688669 0.13635615 -0.08475379 -0.11773377 -0.02641733 0.07098372 0.22097883 -0.0652514
0.084899835 -0.15835983 0.18694559 0.12196789 -0.13359535 0.20712072 0.025293112 0.21818577
0.119917676 0.20666336 0.017243238 -0.079677284 0.19577846 0.11404914 -0.10813596 -0.06750154
00000000: ee37 f53d 33cb d4bc 347c 073e cb6a f0bd
00000010: 0e19 7bbd 3636 3cbe ebeb 02bd 88a1 1b3e
00000020: 8b74 eebd 098b 1c3e a71c 9bbc f03b 9ebc
00000030: 168c 073d fadd b23b 5fca 2cbd adfe 3fbe
00000040: 26d5 a63d f64e 14be 9a94 c8bd db12 df3d
00000050: 14bf 3e3e eb70 26bd 47ba 06be ddc9 3c3e
00000060: 0e8d 203c c47a 36be f95f 323d 8246 133e
00000070: 9f45 e23d f302 4e3d 55e8 003e 5a56 d4bd
00000080: a5b1 41be 14f0 a63d ee01 033e 7030 3fbe
00000090: 9c96 1abe deb3 e8bd 026b 2ebd 9cd1 183e
000000a0: d7d1 203d 4013 5c3e 1e87 933d b679 203e
000000b0: 3b2d 0cbe 75b9 c0bd 2967 f93d 0e14 3fbd
000000c0: b5df 1e3e b15c 0cbd 93b0 353e eef3 d7bc
000000d0: 3ebe d4bd 51d6 b9bd dee7 203d c55c 47bd
000000e0: e4fb 883d f2a0 0b3e 6593 adbd 671e f1bd
000000f0: 2869 d8bc ea5f 913d 4648 623e 87a2 85bd
00000100: f7df ad3d 1429 22be aa6e 3f3e 4dca f93d
00000110: 38cd 08be 7417 543e 8033 cf3c 176c 5f3e
00000120: 6697 f53d 8f9f 533e b141 8d3c d82d a3bd
00000130: 267a 483e 9892 e93d 6376 ddbd 3f3e 8abd

bias_hh_l0 f4 [80]
-0.20516996 0.108505756 0.1623913 0.0030493673 -0.054550506 -0.053679682 -0.035850305 0.031597205
-0.076629676 0.14571021 -0.07084263 -0.1550299 -0.18058142 0.13214247 -0.21976545 0.100445196
-0.13630357 0.08059518 -0.0352092 -0.021121714 0.17506194 -0.083848976 -0.1296408 0.16372845
-0.19903718 0.093710124 -0.2136415 -0.03532366 0.089635566 -0.004758924 0.109950915 -0.06903157
-0.025762284 0.17213295 -0.17243569 -0.117213525 0.13932265 -0.18445045 0.16310446 0.11212676
0.05561648 0.1756254 -0.12576011 -0.21316071 0.055308443 -0.15923207 0.21902423 0.018665895
0.15278399 -0.09469443 -0.11077653 -0.096199475 -0.15161327 0.17895755 -0.16034903 -0.2030298
0.12775083 -0.06067443 -0.16110918 -0.06346614 0.055819783 -0.13689525 0.06784402 0.17854206
-0.06250455 0.06379366 -0.008277543 0.1602507 -0.14955504 -0.07384143 0.08714035 0.10640617
0.18332592 0.19404803 -0.0016770894 0.004555965 0.21355772 0.007140771 0.104357176 0.21783043
00000000: 1318 52be 4438 de3d e849 263e e5d7 473b
00000010: 5a70 5fbd 3adf 5bbd c5d7 12bd 126c 013d
00000020: 05f0 9cbd 0f35 153e f115 91bd 28c0 1ebe
00000030: 56ea 38be 5b50 073e 320a 61be 36b6 cd3d
00000040: 2a93 0bbe 160f a53d 8637 10bd 7207 adbc
00000050: 7043 333e 03b9 abbd 8fc0 04be 6ea8 273e
00000060: 67d0 4bbe 18eb bf3d d6c4 5abe 8baf 10bd
00000070: da92 b73d bff0 9bbb f22d e13d 6c60 8dbd
00000080: 6d0b d3bc 9f43 303e fb92 30be a50d f0bd
00000090: 99aa 0e3e 94e0 3cbe db04 273e b7a2 e53d
000000a0: 1bce 633d 25d7 333e 42c7 00be cd46 5abe
000000b0: 1b8b 623d bb0d 23be e347 603e 38e9 983c
000000c0: 6873 1c3e 27ef c1bd cede e2bd 3b04 c5bd
000000d0: 8240 1bbe a640 373e 8932 24be 0be7 4fbe
000000e0: 1dd1 023e c085 78bd cef9 24be 89fa 81bd
000000f0: 49a3 643d 452e 0cbe cef1 8a3d bbd3 363e
00000100: 6302 80bd 40a6 823d 889e 07bc c218 243e
00000110: f524 19be 2d3a 97bd a476 b23d 7aeb d93d
00000120: cab9 3b3e 87b4 463e c8d1 dbba 344a 953b
00000130: e0ae 5a3e 21fd e93b 37b9 d53d f10e 5f3e

weight f4 [1, 20]
-0.09498596 0.0673525 0.110346064 0.11531874 -0.012626817 -0.13671815 0.18282777 -0.033362366
-0.06879598 -0.13002515 -0.20352797 0.15518834 -0.09651322 -0.027973 -0.15060236 -0.199073
0.013483541 -0.12283906 -0.19104035 -0.19820985
00000000: 0088 c2bd 1cf0 893d 1efd e13d 3b2c ec3d
00000010: b6e0 4ebc d8ff 0bbe 3437 3b3e faa6 08bd
00000020: e8e4 8cbd 5025 05be a369 50be b1e9 1e3e
00000030: b9a8 c5bd a227 e5bc 8137 1abe cbd9 4bbe
00000040: 12ea 5c3c 0c93 fbbd 15a0 43be 86f7 4abe
